Image Dimensions: (32, 32, 3)
Train shape before: (50000, 32, 32, 3)
Train shape after: (40000, 32, 32, 3)
(32, 32, 3)
1
-1
2
-2
3
-1
Not valid -- Convolutional layers will reduce dimensions too much
Now using: 3 layers
Model: "sequential"
_________________________________________________________________
Layer (type)                 Output Shape              Param #   
=================================================================
conv2d (Conv2D)              (None, 30, 30, 32)        896       
_________________________________________________________________
max_pooling2d (MaxPooling2D) (None, 15, 15, 32)        0         
_________________________________________________________________
conv2d_1 (Conv2D)            (None, 13, 13, 32)        9248      
_________________________________________________________________
max_pooling2d_1 (MaxPooling2 (None, 6, 6, 32)          0         
_________________________________________________________________
conv2d_2 (Conv2D)            (None, 4, 4, 32)          9248      
_________________________________________________________________
flatten (Flatten)            (None, 512)               0         
_________________________________________________________________
dense (Dense)                (None, 64)                32832     
_________________________________________________________________
dense_1 (Dense)              (None, 3072)              199680    
=================================================================
Total params: 251,904
Trainable params: 251,904
Non-trainable params: 0
_________________________________________________________________
batch_size 4000
[1] --> [0. 1. 0. 0. 0. 0. 0. 0. 0. 0.]
train_labels shape: (40000, 10)
Epoch 1/5
 1/10 [==>...........................] - ETA: 25s - loss: 11752.8174 - accuracy: 2.5000e-04
…
