Image Dimensions: (28, 28, 1)
Train shape before: (60000, 28, 28)
Train shape after: (48000, 28, 28)
(28, 28, 1)
1
-2
2
-2
3
-1
Not valid -- Convolutional layers will reduce dimensions too much
Now using: 3 layers
Model: "sequential"
_________________________________________________________________
Layer (type)                 Output Shape              Param #   
=================================================================
conv2d (Conv2D)              (None, 26, 26, 32)        320       
_________________________________________________________________
max_pooling2d (MaxPooling2D) (None, 13, 13, 32)        0         
_________________________________________________________________
conv2d_1 (Conv2D)            (None, 11, 11, 32)        9248      
_________________________________________________________________
max_pooling2d_1 (MaxPooling2 (None, 5, 5, 32)          0         
_________________________________________________________________
conv2d_2 (Conv2D)            (None, 3, 3, 32)          9248      
_________________________________________________________________
flatten (Flatten)            (None, 288)               0         
_________________________________________________________________
dense (Dense)                (None, 64)                18496     
_________________________________________________________________
dense_1 (Dense)              (None, 784)               50960     
=================================================================
Total params: 88,272
Trainable params: 88,272
Non-trainable params: 0
_________________________________________________________________
batch_size 4800
7 --> [0. 0. 0. 0. 0. 0. 0. 1. 0. 0.]
train_labels shape: (48000, 10)
Epoch 1/5
 1/10 [==>...........................] - ETA: 20s - loss: 679.5757 - accuracy: 0.0000e+00
…
