Image Dimensions: (32, 32, 3)
Train shape before: (50000, 32, 32, 3)
Train shape after: (40000, 32, 32, 3)
(32, 32, 3)
Model: "sequential"
_________________________________________________________________
Layer (type)                 Output Shape              Param #   
=================================================================
dense (Dense)                (None, 32, 32, 32)        128       
_________________________________________________________________
flatten (Flatten)            (None, 32768)             0         
_________________________________________________________________
dense_1 (Dense)              (None, 32)                1048608   
_________________________________________________________________
dense_2 (Dense)              (None, 32)                1056      
_________________________________________________________________
dense_3 (Dense)              (None, 32)                1056      
_________________________________________________________________
dense_4 (Dense)              (None, 3072)              101376    
=================================================================
Total params: 1,152,224
Trainable params: 1,152,224
Non-trainable params: 0
_________________________________________________________________
batch_size 4000
[7] --> [0. 0. 0. 0. 0. 0. 0. 1. 0. 0.]
train_labels shape: (40000, 10)
Epoch 1/5
 1/10 [==>...........................] - ETA: 18s - loss: 11746.8301 - accuracy: 0.0000e
…
