Image Dimensions: (28, 28, 1)
Train shape before: (60000, 28, 28)
Train shape after: (48000, 28, 28)
(28, 28, 1)
Model: "sequential"
_________________________________________________________________
Layer (type)                 Output Shape              Param #   
=================================================================
dense (Dense)                (None, 28, 28, 32)        64        
_________________________________________________________________
flatten (Flatten)            (None, 25088)             0         
_________________________________________________________________
dense_1 (Dense)              (None, 32)                802848    
_________________________________________________________________
dense_2 (Dense)              (None, 32)                1056      
_________________________________________________________________
dense_3 (Dense)              (None, 32)                1056      
_________________________________________________________________
dense_4 (Dense)              (None, 784)               25872     
=================================================================
Total params: 830,896
Trainable params: 830,896
Non-trainable params: 0
_________________________________________________________________
batch_size 4800
0 --> [1. 0. 0. 0. 0. 0. 0. 0. 0. 0.]
train_labels shape: (48000, 10)
Epoch 1/5
 1/10 [==>...........................] - ETA: 14s - loss: 674.8721 - accuracy: 0.0027
…
